…
y_test, verbose=0)\nprint(f\"test accuracy {acc*100}\")\n\n```", "```py\nmodel.save('myModel.h5')\n\n```", "```py\nnew_model = tf.keras.models.load_model('my_model.h5') #same file path\n\n```", "```py\nloss, acc = new_model.evaluate(x_test, y_test, verbose=0)\nprint(f\"test accuracy {acc*100}\")\n\n```", "```py\nnewmodel.summary()\n\n```", "```py\nModel: \"sequential\"\n_________________________________________________________________\nLayer (type)                 Output Shape              Param #\n=================================================================\nconv_1 (Conv2D)              (None, 30, 30, 16)        448\n_________________________________________________________________\npool_1 (MaxPooling2D)        (None, 7, 7, 16)          0\n_________________________________________________________________ \nbatch_normalization (BatchNo (None, 7, 7, 16)          64         \n_________________________________________________________________ \nflatten (Flatten)            (None, 784)               0          \n_________________________________________________________________ \ndense_1 (Dense)              (None, 32)                25120      \n_________________________________________________________________ \ndropout (Dropout)            (None, 32)                0          \n_________________________________________________________________ \ndense_2 (Dense)              (None, 10)                330        \n================================================================= \nTotal params: 25,962\nTrainable params: 25,930\nNon-trainable params: 32 \n_________________________________________________________________\n\n```", "```py\nnew_model.save('newmodel')\n\n```", "```py\n!dir newmodel\n\n```", "```py\nother_model = tf.keras.models.load_model('newmodel')\n\n```", "```py\nmodel = Sequential(
…
