["```py\nModel: \"sequential\"\n_________________________________________________________________\nLayer (type)                 Output Shape              Param #   \n=================================================================\ndense_6 (Dense)              (None, 512)               2560      \n_________________________________________________________________\ndense_7 (Dense)              (None, 256)               131328    \n_________________________________________________________________\ndense_8 (Dense)              (None, 128)               32896     \n_________________________________________________________________\ndense_9 (Dense)              (None, 64)                8256      \n_________________________________________________________________\ndense_10 (Dense)             (None, 32)                2080      \n_________________________________________________________________\ndense_11 (Dense)             (None, 3)                 99        \n=================================================================\nTotal params: 177,219\nTrainable params: 177,219\nNon-trainable params: 0\n_________________________________________________________________\n\n```", "```py\nloss1, acc1, mse1 = model1.evaluate(X_test, y_test)\nprint(f\"Loss is {loss1},\\nAccuracy is {acc1*100},\\nMSE is {mse1}\")\n\n```", "```py\nimport matplotlib.pyplot
…
