…
er_4)\n```", "```py\nmodel = tensorflow.keras.models.Model(input_layer, output_layer, name=\"model\")\n```", "```py\nmodel.compile(optimizer=tensorflow.keras.optimizers.Adam(lr=0.0005), loss=\"categorical_crossentropy\")\n```", "```py\n_________________________________________________________________\nLayer (type)                 Output Shape              Param #   \n=================================================================\ninput_layer (InputLayer)     [(None, 784)]             0         \n_________________________________________________________________\ndense_layer_1 (Dense)        (None, 500)               392500    \n_________________________________________________________________\nrelu_layer_1 (ReLU)          (None, 500)               0         \n_________________________________________________________________\ndense_layer_2 (Dense)        (None, 250)               125250    \n_________________________________________________________________\nrelu_layer_2 (ReLU)          (None, 250)               0         \n_________________________________________________________________\ndense_layer_3 (Dense)        (None, 20)                12550     \n_________________________________________________________________\nrelu_layer_3 (ReLU)          (None, 20)                0         \n_________________________________________________________________\ndense_layer_4 (Dense)        (None, 10)                510       \n_________________________________________________________________\noutput_layer (Softmax)       (None, 10)                0         \n=================================================================\nTotal params: 530,810\nTrainable params: 530,810\nNon-trainable params: 0\n_________________________________________________________________\n```", "```py\n(x_train, y_train), (x_test, y_test) = tensorflow.keras.datasets.mnist.load_data()\n\nx_train = x_train.astype(numpy.float64) / 255.0\nx_test = x_test.astype(numpy.fl
…
