…
rue)\n\nfor param in model.parameters():\n    param.requires_grad = False # turn all gradient off\n\nmodel.fc = nn.Linear(2048, 2, bias=True) \n#add new fully connected layer\n\nfc_parameters = model.fc.parameters()\n\nfor param in fc_parameters:\n    param.requires_grad = True #turning last layer gradient to true\n\nmodel\n```", "```py\nDownloading: \"https://download.pytorch.org/models/resnet50-19c8e357.pth\" to /tmp/.torch/models/resnet50-19c8e357.pth\n100%|██████████| 102502400/102502400 [00:01<00:00, 89692748.86it/s]\n```", "```py\n(layer1): Sequential(\n    (0): Bottleneck(\n      (conv1): Conv2d(64, 64, kernel_size=(1, 1), stride=(1, 1), bias=False)\n      (bn1): BatchNorm2d(64, eps=1e-05, momentum=0.1, affine=True, track_running_stats=True)\n      (conv2): Conv2d(64, 64, kernel_size=(3, 3), stride=(1, 1), padding=(1, 1), bias=False)\n      (bn2): BatchNorm2d(64, eps=1e-05, momentum=0.1, affine=True, track_running_stats=True)\n      (conv3): Conv2d(64, 256, kernel_size=(1, 1), stride=(1, 1), bias=False)\n      (bn3): BatchNorm2d(256, eps=1e-05, momentum=0.1, affine=True, track_running_stats=True)\n      (relu): ReLU(inplace)\n      (downsample): Sequential(\n        (0): Conv2d(64, 256, kernel_size=(1, 1), stride=(1, 1), bias=False)\n        (1): BatchNorm2d(256, eps=1e-05, momentum=0.1, affine=True, track_running_stats=True)\n      )\n    )\n```", "```py\nResNet(\n  (conv1): Conv2d(3, 64, kernel_size=(7, 7), stride=(2, 2), padding=(3, 3), bias=False)\n... #omitted\n    ... #omitted\n      (bn3): BatchNorm2d(2048, eps=1e-05, momentum=0.1, affine=True, track_running_stats=True)\n      (relu): ReLU(inplace)\n    )\n  )\n  (avgpool): AvgPool2d(kernel_size=7, stride=1, padding=0)\n  (fc): Linear(in_features=2048, out_features=2, bias=True)\n)\n```", "```py\nuse_cuda = torch.cuda.is_available()\nif use_cuda:\n    model = model.cuda()\ncriterion = nn.CrossEntropyLoss()\noptimizer = optim.SGD(model.fc.parameters(), lr=0.001 , momentum=0.9)\n```", "```py\ndef train(n_epochs, model, optimizer, criterion, use_cuda, save_path):\n    *\"\"\"returns trained model\"\"\"*\n    *# initialize tracker 
…
valid_loss_min,\n            valid_loss))\n            valid_loss_min = valid_loss\n\n    *# return trained model*\n    return model\n```", "```py\nimport torch\nimport torchvision\nfrom torchvision import datasets, transforms, models\nimport torch.nn.functional as F\nfrom collections import OrderedDict\nfrom torch import nn\nfrom torch import optim\n```", "```py\nimport torch\nimport numpy as np\nfrom torchvision import datasets\nimport torchvision.transforms as transforms\n```", "```py\nvgg16 = models.vgg16(pretrained=True)\nprint(vgg16)\n```", "```py\nVGG(\n  (features): Sequential(\n    (0): Conv2d(3, 64, kernel_size=(3, 3), stride=(1, 1), padding=(1, 1))\n    (1): ReLU(inplace)\n    (2): Conv2d(64, 64, kernel_size=(3, 3), stride=(1, 1), padding=(1, 1))\n...\n    (24): Conv2d(512, 512, kernel_size=(3, 3), stride=(1, 1), padding=(1, 1))\n...\n    (29): ReLU(inplace)\n    (30): MaxPool2d(kernel_size=2, stride=2, padding=0, dilation=1, ceil_mode=False)\n  )\n  (classifier): Sequential(\n    (0): Linear(in_features=25088, out_features=4096, bias=True)\n    (1): ReLU(inplace)\n    (2): Dropout(p=0.5)\n    (3): Linear(in_features=4096, out_features=4096, bias=True)\n    (4): ReLU(inplace)\n    (5): Dropout(p=0.5)\n    (6): Linear(in_features=4096, out_features=1000, bias=True)\n  )\n)\n```", "```py\ngpu_is_avail = torch.cuda.is_available()if not gpu_is_avail:\n     print('CUDA is NOT available.')\nelse:\n     print('CUDA is available. ')device = torch.device(“cuda” if torch.cuda.is_available() else “cpu”)\n```", "```py\ntorch.topk(input, k, dim=None, largest=True, sorted=True, out=None) -> (Tensor, LongTensor)\nReturns the
…
